model.pt (torch, 29727 bytes, 6 tensors)

fc1.weight f4 [64, 37]
-0.2909208 0.049227398 -0.094438575 -0.2941342 -0.26290703 -0.44207105 -0.43070248 0.5544386
-0.16333415 -0.90181947 -0.36045733 0.015734632 -0.09703822 -0.61575115 -0.27754226 0.17885473
-0.43189394 -0.09930399 -0.2574863 -0.8142386 -0.15283804 0.120687515 -0.069581956 -0.19037606
-0.36656904 -0.9453604 0.07765332 0.36355206 -0.21557868 -0.34163168 0.21963158 -0.21463293
-0.047945693 -0.5596229 -0.30015457 0.11596043 -0.021715254 0.116560884 0.07196038 0.05599865
0.116699256 -0.035485387 -0.10226944 -0.110860124 0.06703459 -0.13255554 -0.054290358 0.020706862
0.008803597 0.0027765674 0.049395632 0.06321204 0.01816201 0.10557675 0.034745175 -0.0394899
0.0426707 -0.052625913 -0.1790315 -0.10351907 0.032303162 -0.033037983 -0.011247297 -0.029826527
0.022322342 0.025501497 0.0395134 0.13148576 0.15646061 -0.022110024 -0.141619 -0.10937955
0.106293984 0.056993786 -0.02013188 -0.30806637 0.073253326 0.078015454 -0.5616775 -0.8155823
-0.43506947 0.1788134 0.08496925 -0.67605174 -0.17180786 -1.1122993 0.10739459 -0.036313646
-0.7392084 -0.2665831 -0.28581193 0.2914534 -0.67761946 -0.27958646 -0.30570725 0.3544306
-0.22932416 -0.08175984 -0.159332 -0.8812551 -0.156575 0.2273479 -0.018966634 -0.374197
-0.5843456 -0.055873387 0.02292371 -0.7072211 -0.06409291 -0.18688706 0.07963699 0.13855088
0.16228876 0.15851629 0.15348569 0.044581328 0.12897393 0.14990978 0.1234586 0.114704885
0.04519683 0.11792296 0.08888456 0.13062005 0.16249968 0.061559625 0.04400177 0.007024337
0.03926741 0.055250786 0.01625219 0.41658694 -0.8049479 -0.6499331 -0.89436823 -3.1027825
0.09742518 0.13913596 0.14784484 0.1607983 0.0055886675 0.122535415 0.14480796 0.15428254
0.23901181 0.086130045 0.0013242764 0.009179968 0.14011827 -0.61841786 -0.16103417 -0.7728845
-0.41699284 -0.38093737 0.36522207 -0.27318856 -0.8358407 -0.16404465 0.35237277 -0.3280049
-0.6666648 -0.98024696 -0.9710488 0.15774141 -0.5829712 -0.3421703 -0.6103639 -0.72391856
-0.012663699 -0.47146958 -0.23854044 -0.24309632 -0.7287591 -0.020249804 -0.63274175 -0.12537454
0.087677166 -0.15757117 0.24511904 -0.8629487 -0.13706289 0.015744934 -0.5247167 -0.30862772
-0.13179055 -0.48408115 -0.051394235 -0.19993125 -0.113561615 -0.4175962 0.2370395 -0.24607049
0.26476625 -0.5047729 -2.4261277 -0.3056435 -0.012613828 -0.15953231 -0.21267734 0.020269454
-0.32661334 0.1462442 -0.14270955 -0.45783556 -0.49910015 0.082453266 -0.034390327 -0.01215236
-0.18176727 0.29321194 -0.29549593 0.45387432 -0.13467406 -0.77720046 -1.8131286 0.30291048
-0.4653871 -0.34132263 -0.8766237 -3.0953267 -0.09279454 0.014959964 -0.20182283 -0.3944765
-0.23698534 -0.26641667 -0.6118908 -0.76302284 -0.9088507 0.06727102 -0.5370366 -1.8659307
-0.55839705 -0.33176175 0.16425398 -0.09574522 -1.3526605 -0.7965478 -0.08747004 -0.17032513
-0.26440534 0.22320709 -0.14329772 -0.44948778 0.1467024 -0.67264974 -1.4451628 -0.4525304
0.0044316687 -0.10046068 -0.69203633 -0.68947 -0.26515377 -0.3869993 -0.11947287 -0.21816996
00000000: 92f3 94be aba2 493d 0369 c1bd c298 96be
00000010: c09b 86be 2357 e2be 0985 dcbe b0ef 0d3f
00000020: 1141 27be a4dd 66bf dd8d b8be eae5 803c
00000030: f9bb c6bd dea1 1dbf 051a 8ebe b225 373e
00000040: 3421 ddbe e45f cbbd 3fd5 83be f171 50bf
00000050: 9381 1cbe 042b f73d fc80 8ebd f1f1 42be
00000060: f0ae bbbe 2403 72bf b408 9f3d 7f23 ba3e
00000070: a8c0 5cbe 59ea aebe 1ae7 603e bcc8 5bbe
00000080: b462 44bd 7243 0fbf dcad 99be a97c ed3d
00000090: 30e4 b1bc 79b7 ee3d f75f 933d d75e 653d
000000a0: 0500 ef3d 2059 11bd a472 d1bd a20a e3bd
000000b0: 6e49 893d a4bc 07be 915f 5ebd 70a1 a93c
000000c0: f63c 103c 12f7 353b 1353 4a3d 5075 813d
000000d0: 7fc8 943c a038 d83d f550 0e3d 29c0 21bd
000000e0: 79c7 2e3d 458e 57bd 0954 37be ce01 d4bd
000000f0: 5250 043d d652 07bd 9546 38bc c356 f4bc
00000100: 58dd b63c 84e8 d03c ced8 213d 34a4 063e
00000110: 3637 203e 1520 b5bc 9204 11be 6302 e0bd
00000120: a9b0 d93d 5172 693d 9deb a4bc e0ba 9dbe
00000130: d705 963d 91c6 9f3d 19ca 0fbf 00ca 50bf
00000140: 6dc1 debe dc1a 373e 5c04 ae3d ba11 2dbf
00000150: 66ee 2fbe d35f 8ebf b2f1 db3d 9ebd 14bd
00000160: c33c 3dbf 957d 88be f155 92be 6139 953e
00000170: 7878 2dbf f525 8fbe a985 9cbe ed77 b53e
00000180: f4d3 6abe b471 a7bd ee27 23be ef99 61bf
00000190: 3255 20be e3cd 683e ea5f 9bbc c096 bfbe
000001a0: ac97 15bf 7edb 64bd 81ca bb3c 710c 35bf
000001b0: 2543 83bd 525f 3fbe b818 a33d 48e0 0d3e
000001c0: 062f 263e 1852 223e 5a2b 1d3e e99a 363d
000001d0: be11 043e f381 193e ddd7 fc3d 65ea ea3d
000001e0: 5020 393d 9881 f13d 1c09 b63d 43c1 053e
000001f0: 5166 263e f225 7c3d 333b 343d 692c e63b
00000200: ddd6 203d a64e 623d 5023 853c e24a d53e
00000210: 1111 4ebf 0462 26bf 51f5 64bf fd93 46c0
00000220: da86 c73d a879 0e3e a364 173e 4fa8 243e
00000230: 2421 b73b d9f3 fa3d 8a48 143e 3efc 1d3e
00000240: 83bf 743e f364 b03d 5893 ad3a 9467 163c
00000250: 2a7b 0f3e a250 1ebf 24e6 24be c2db 45bf
00000260: 1680 d5be 390a c3be 63fe ba3e 5fdf 8bbe
00000270: a8f9 55bf 52fb 27be 346a b43e 42f0 a7be
00000280: 8baa 2abf 77f1 7abf a796 78bf f786 213e
00000290: 9a3d 15bf f230 afbe cf40 1cbf ba52 39bf
000002a0: 677b 4fbc 7664 f1be f243 74be 3eee 78be
000002b0: f58f 3abf ebe2 a5bc 5dfb 21bf 2f62 00be
000002c0: 1690 b33d 565a 21be 7c00 7b3e 35ea 5cbf
000002d0: 375a 0cbe 85fb 803c d553 06bf 7404 9ebe
000002e0: 1af4 06be 7cd9 f7be c382 52bd c7ba 4cbe
000002f0: fe92 e8bd 2bcf d5be 7cba 723e e7f9 7bbe
00000300: 718f 873e cc38 01bf ad45 1bc0 4e7d 9cbe
00000310: 3baa 4ebc 705c 23be 17c8 59be 200c a63c
00000320: dd39 a7be 0ac1 153e 7422 12be 6c69 eabe
00000330: 0e8a ffbe 42dd a83d dfdc 0cbd b11a 47bc
00000340: 3321 3abe e01f 963e 3e4b 97be 3762 e83e
00000350: ffe7 09be 9cf6 46bf 9914 e8bf 1517 9b3e
00000360: 3847 eebe d7c1 aebe 696a 60bf d519 46c0
00000370: 100b bebd a31a 753c a5aa 4ebe d3f8 c9be
00000380: 49ac 72be c467 88be e0a4 1cbf 7755 43bf
00000390: 71aa 68bf 63c5 893d 3b7b 09bf d1d6 eebf
000003a0: 1cf3 0ebf addc a9be 3232 283e 1216 c4bd
000003b0: fb23 adbf 8eea 4bbf 7e23 b3bd b669 2ebe
000003c0: 2360 87be 6690 643e a3bc 12be 4323 e6be
000003d0: 2739 163e c632 2cbf 18fb b8bf 11b2 e7be
000003e0: 8837 913b 54be cdbd 4b29 31bf 1b81 30bf
000003f0: 3cc2 87be c624 c6be 31ae f4bd f267 5fbe

fc1.bias f4 [64]
0.13438195 -0.16979264 -0.3258199 -0.15333642 0.105481595 0.11365175 -0.22957902 -0.0963846
0.10761481 -0.1966551 0.076578796 0.19539298 0.13227557 -0.00058290816 -0.20218113 -0.32575202
0.13770139 -0.21551064 0.032156136 -0.269851 -0.11163955 -0.079759255 -0.14992031 -0.20543525
-0.22706251 0.1847417 -0.16046686 -0.17833282 0.22817774 -0.006330069 -0.14068872 -0.14776696
-0.034577023 -0.09959839 -0.27177882 -0.027277999 -0.34489623 -0.0981743 -0.2324213 -0.077829786
-0.16218665 -0.426448 -0.13125898 0.2903637 0.015348408 -0.09226495 -0.028951308 -0.26979196
-0.22110435 0.015990334 -0.31793228 0.21546578 -0.0012368999 0.25738868 -0.2438049 -0.31877932
-0.013947226 -0.11620024 -0.21157241 -0.28616297 -0.08251622 -0.0025340351 0.26426405 -0.04273684
00000000: 6c9b 093e 1fde 2dbe ded1 a6be 3904 1dbe
00000010: bc06 d83d 40c2 e83d c316 6bbe 4a65 c5bd
00000020: 2765 dc3d f45f 49be 58d5 9c3d 1915 483e
00000030: 3f73 073e 4ece 18ba 9208 4fbe f8c8 a6be
00000040: 9801 0d3e d2ae 5cbe 27b6 033d e929 8abe
00000050: 47a3 e4bd d258 a3bd b684 19be 9e5d 52be
00000060: 1383 68be ee2c 3d3e 6d51 24be e19c 36be
00000070: 6da7 693e 786c cfbb b410 10be 3950 17be
00000080: a3a0 0dbd 3efa cbbd 9826 8bbe 1c76 dfbc
00000090: 3d96 b0be 9b0f c9bd d9ff 6dbe 3965 9fbd
000000a0: 4214 26be 6457 dabe c168 06be 8daa 943e
000000b0: e477 7b3c 68f5 bcbd 4b2b edbc 2c22 8abe
000000c0: 2e69 62be 29fe 823c 05c8 a2be 10a3 5c3e
000000d0: 791f a2ba 73c8 833e fea7 79be 0b37 a3be
000000e0: e882 64bc 64fa edbd 70a6 58be f483 92be
000000f0: 44fe a8bd 0e12 26bb 9e4d 873e d30c 2fbd

fc2.weight f4 [64, 64]
0.25314477 0.0806725 0.08555263 0.075287394 -0.51888174 0.6180228 -0.2286473 -0.12876049
0.17031364 -0.08341488 0.20992579 -1.4617745 -0.68257195 0.28700688 -0.15495521 0.25096053
0.39701036 0.13216545 -0.40211073 -0.088614844 0.27366522 -0.2577787 0.07024262 -0.50106335
0.07790471 0.14151633 0.5816639 -1.0227555 -0.1845056 -0.81358063 -0.58293647 -0.13965191
0.049047757 -0.107470654 -0.030278768 0.4357558 -0.20667608 -0.045041036 0.06991706 -0.16700432
-0.2825308 -0.0372598 0.088710845 -0.13947581 0.04774722 -0.4878495 0.1437626 -0.03841431
-0.28158882 0.057898354 -0.18061005 -0.42115992 -0.37982357 0.42405424 0.20161192 0.040159743
-0.7829295 -0.07800157 -0.23771006 0.12448969 0.18810573 0.09245147 0.019099623 -0.1334057
0.1744882 0.14324753 0.0019404291 -0.123617284 0.33206847 -0.09560918 -0.11034461 -0.114048764
0.08995237 0.41651833 0.2619934 0.35161415 0.14652424 0.17883466 0.1998193 0.37213695
0.25540012 0.07629036 0.032457087 0.2015854 0.022071704 0.32110518 0.24253367 0.2201997
0.02077066 0.32113156 -0.2507974 -0.19951291 0.030327998 -0.15471424 -0.2617926 0.03921771
-0.035103176 -0.08624649 0.24839193 0.2876156 -0.16277702 0.22286654 0.56671774 0.1717928
0.2178302 0.26600188 0.18301801 -0.35319996 0.18072122 0.067255974 0.339438 -0.20569016
0.049620427 -0.13834997 0.32405722 -0.009042598 -0.14652425 -0.3124539 0.100497924 -0.6377088
-0.17921707 0.059718847 0.09859189 -0.0006802341 -0.30046836 -0.22539382 0.34687224 0.09988708
-0.4020926 -0.16637453 0.08687768 -0.6415912 0.13650018 -0.078649975 -0.38526306 -0.21451439
0.059831157 0.118193395 -0.22983272 0.16668838 0.12259362 0.08776147 0.0016533487 0.12175019
-0.2597684 0.14494886 -0.0017808246 -0.009213593 -0.008977456 0.18780899 -0.059095692 0.20965886
-0.058736913 -0.01463302 0.19012728 0.1606263 -0.0022707433 0.08387426 0.4247913 -0.15880004
-0.09427346 0.04062545 -0.065660626 0.03437503 -0.04692551 0.050526723 -0.16562223 -0.36510146
-0.007198711 0.01669018 0.24011838 -0.17096591 0.14968634 -0.02107481 -0.1300268 0.16809028
0.24529542 -0.105610415 -0.071200125 0.023470929 -0.16535304 -0.22046433 -0.06165452 0.12859686
0.09225137 -0.03965769 0.0076187924 -0.103864454 -0.007831409 0.078741826 -0.010679798 -0.062258407
0.01770282 -0.42928174 0.31554428 0.10544308 0.14307038 0.31589705 -0.24074496 -0.007317073
0.4978432 0.5468191 0.38470787 0.15005535 0.3012435 0.47207174 -0.4392029 0.49060696
0.3919125 0.09489219 -0.3491901 -0.34877163 -0.9602891 0.00280039 0.06881338 -0.038865775
0.28416193 -0.25194183 -0.39868987 0.53273815 0.9334929 -0.25630024 0.0027128037 -0.022040742
0.40217978 0.08325889 -0.037368532 0.47713444 -0.33281344 -0.040158883 0.048062857 0.20490205
0.5940206 0.39211354 0.5499435 -0.33763015 -0.020212166 -0.055708215 0.22405745 0.2814898
0.49176636 0.49536914 0.19070897 -0.15243585 -0.22423774 0.4321373 -0.044657756 -0.14038838
0.3162217 -0.33488694 0.023093928 0.5582088 -0.009905939 0.17577724 0.029667769 -0.24641807
00000000: 319c 813e a037 a53d 3836 af3d 4730 9a3d
00000010: 6fd5 04bf be36 1e3f 8522 6abe cad9 03be
00000020: b366 2e3e 6cd5 aabd c9f6 563e 6d1b bbbf
00000030: 09bd 2ebf 91f2 923e 94ac 1ebe e67d 803e
00000040: f144 cb3e 6156 073e 75e1 cdbe b37b b5bd
00000050: d91d 8c3e 92fb 83be 5ddb 8f3d b045 00bf
00000060: 818c 9f3d a8e9 103e ede7 143f a7e9 82bf
00000070: 09ef 3cbe d246 50bf 533b 15bf e900 0fbe
00000080: 4de6 483d 9319 dcbd 2e0b f8bc 621b df3e
00000090: e5a2 53be f37c 38bd ad30 8f3d 2e03 2bbe
000000a0: e1a7 90be bb9d 18bd 08ae b53d bfd2 0ebe
000000b0: 9792 433d 69c7 f9be 8136 133e 5358 1dbd
000000c0: 692c 90be d326 6d3d d7f1 38be 46a2 d7be
000000d0: 3c78 c2be a31d d93e 5b73 4e3e 8b7e 243d
000000e0: 116e 48bf 4abf 9fbd 446a 73be 73f4 fe3d
000000f0: ca9e 403e 3257 bd3d d076 9c3c 819b 08be
00000100: 09ad 323e 7baf 123e ff55 fe3a 0f2b fdbd
00000110: e104 aa3e bfce c3bd 5bfc e1bd 6692 e9bd
00000120: f338 b83d e441 d53e 0024 863e c506 b43e
00000130: 730a 163e 6f20 373e 6e9d 4c3e bc88 be3e
00000140: cec3 823e 1f3e 9c3d b9f1 043d 676c 4e3e
00000150: b8cf b43c e667 a43e bf5a 783e 087c 613e
00000160: 3b27 aa3c 5b6b a43e 8468 80be 1d4d 4cbe
00000170: 6c72 f83c 696d 1ebe ae09 86be c0a2 203d
00000180: 59c8 0fbd 00a2 b0bd 745a 7e3e 5a42 933e
00000190: 05af 26be 2037 643e 6a14 113f 74ea 2f3e
000001a0: e10e 5f3e 6631 883e 1369 3b3e a0d6 b4be
000001b0: fc0e 393e 80bd 893d d1ca ad3e 71a0 52be
000001c0: ca3e 4b3d 9dab 0dbe d4ea a53e 6827 14bc
000001d0: 740a 16be f5f9 9fbe dbd1 cd3d e240 23bf
000001e0: ae84 37be c09b 743d 8bea c93d bd51 32ba
000001f0: fdd6 99be a3cd 66be 3d99 b13e 9991 cc3d
00000200: 15df cdbe 165e 2abe edec b13d 523f 24bf
00000210: b4c6 0b3e 3d13 a1bd 3341 c5be a9a9 5bbe
00000220: 8411 753d 610f f23d 4559 6bbe 5cb0 2a3e
00000230: 5d12 fb3d 49bc b33d 2db5 d83a 2a58 f93d
00000240: 5d00 85be 796d 143e 8f6a e9ba 9cf4 16bc
00000250: 2e16 13bc 0051 403e 530e 72bd d0b0 563e
00000260: 1e96 70bd 56bf 6fbc bab0 423e 397b 243e
00000270: c0d0 14bb 45c6 ab3d 3f7e d93e 7a9c 22be
00000280: 7212 c1bd df66 263d 1479 86bd d5cc 0c3d
00000290: f734 40bd 1cf5 4e3d e098 29be 94ee babe
000002a0: 2ae3 ebbb d8b9 883c 98e1 753e b011 2fbe
000002b0: 6047 193e 14a5 acbc bf25 05be dc1f 2c3e
000002c0: b92e 7b3e 464a d8bd 5fd1 91bd 1b46 c03c
000002d0: 4f52 29be 67c1 61be 7389 7cbd e5ae 033e
000002e0: 49ee bc3d 1a70 22bd 10a7 f93b e3b6 d4bd
000002f0: 4f4f 00bc 6543 a13d 52fa 2ebc ac02 7fbd
00000300: 8105 913c d1ca dbbe 058f a13e 8bf2 d73d
00000310: 0b81 123e 42bd a13e d985 76be 0fc4 efbb
00000320: 4ee5 fe3e 56fc 0b3f 6ef8 c43e 1ca8 193e
00000330: 973c 9a3e 63b3 f13e 34df e0be d630 fb3e
00000340: c1a8 c83e d656 c23d 0bc9 b2be 3292 b2be
00000350: 82d5 75bf bf86 373b 08ee 8c3d b831 1fbd
00000360: ac7d 913e 85fe 80be 1421 ccbe 8761 083f
00000370: 64f9 6e3f c939 83be 4bc9 313b c98e b4bc
00000380: 82ea cd3e a383 aa3d bf0f 19bd f74a f43e
00000390: 8666 aabe a47d 24bd 8fdd 443d d8d1 513e
000003a0: bc11 183f 1bc3 c83e 19c9 0c3f dcdd acbe
000003b0: fc93 a5bc 4c2e 64bd 516f 653e 6e1f 903e
000003c0: cdc8 fb3e 06a1 fd3e 3649 433e 2518 1cbe
000003d0: 949e 65be 1a41 dd3e 0deb 36bd f9c1 0fbe
000003e0: d0e7 a13e 4d76 abbe 7a2f bd3c c6e6 0e3f
000003f0: 854c 22bc f3fe 333e d209 f33c 0555 7cbe

fc2.bias f4 [64]
-0.037987027 0.27046496 0.52464235 -0.2293486 0.34992233 -0.54769635 -0.28005743 -0.08148417
0.74044114 0.9117821 -0.24705957 0.9127768 0.7854006 -0.055052202 0.092797406 0.14231753
0.10128333 0.24871583 -0.24666473 0.6549443 0.10363797 0.8816383 -0.2921304 -0.06459783
0.5695835 -0.11314869 0.0016321837 -0.1457694 -0.1595662 0.71436167 -0.10583423 0.058875784
-0.4511012 0.1558591 0.58558804 0.47220662 -0.2211916 -0.42287484 0.83527744 0.27316594
0.008775544 0.96629053 0.17094165 -0.49010748 0.10579128 -0.20415689 0.08117164 -0.1678174
0.033690073 -0.14313574 -0.30815408 0.96891606 -0.15599655 -0.12780705 0.24239123 -0.055260945
-0.20809317 -0.29402182 -0.40547156 -0.41246662 -0.15554626 0.43077034 -0.21379273 -0.18177398
00000000: 4998 1bbd 627a 8a3e f64e 063f 5cda 6abe
00000010: 0529 b33e d435 0cbf b063 8fbe 2ce1 a6bd
00000020: 8d8d 3d3f 8d6a 693f 2ffd 7cbe beab 693f
00000030: 0410 493f 6b7e 61bd 910c be3d b0bb 113e
00000040: a26d cf3d 5daf 7e3e ae95 7cbe 6eaa 273f
00000050: 2540 d43d 0cb3 613f 1e92 95be de4b 84bd
00000060: 39d0 113f 80ba e7bd ffee d53a 9344 15be
00000070: 5265 23be 68e0 363f 9ebf d8bd bc27 713d
00000080: bdf6 e6be 8799 1f3e 19e9 153f 11c5 f13e
00000090: 0d80 62be 0d83 d8be bed4 553f 68dc 8b3e
000000a0: 4dc7 0f3c d15e 773f 540b 2f3e 5eef fabe
000000b0: 19a9 d83d 810e 51be 513d a63d 53d8 2bbe
000000c0: 9afe 093d 2d92 12be 5fc6 9dbe e20a 783f
000000d0: 8fbd 1fbe dadf 02be 6835 783e 4d59 62bd
000000e0: 6016 55be 078a 96be f899 cfbe d32e d3be
000000f0: 8547 1fbe ee8d dc3e 7bec 5abe f522 3abe

fc3.weight f4 [4, 64]
0.2647242 0.1296332 0.21680336 0.17138776 0.18788846 -0.56468004 -0.044859663 0.015912002
0.3088529 0.29400623 -0.14920647 0.3580772 0.28022054 0.050135538 0.33076146 0.29285383
0.1636759 0.10803135 -0.11626497 0.2542494 0.23971947 0.35712978 0.60247326 0.4387907
-0.10314761 0.046521686 -0.2402931 0.07412436 -0.31842682 0.24033247 0.3303618 0.124754384
-0.11163184 -0.19327098 0.20142062 0.24468008 0.34771895 0.16238603 0.2905518 -0.06639576
0.3498224 0.30502528 0.4644462 -0.12833719 -0.056597985 -0.08874416 0.012094883 0.0831036
0.40606204 0.1701365 -0.25420332 0.30515173 -0.14467227 0.3683777 0.2644101 0.17818286
-0.32246885 0.022059007 -0.24064855 0.038652997 -0.40227944 0.100710884 0.04925656 0.3803078
0.08821911 0.21633448 0.32352468 0.20680618 0.2642793 -0.060706366 -0.18228547 -0.2184764
0.25530258 0.34433675 -0.2809758 0.31162557 0.31905612 -0.049970116 0.349195 0.44389057
0.2025669 0.13032594 0.15872681 0.010211201 0.08033977 0.3176043 -0.105419904 0.7179304
0.072330296 -0.053052384 0.281738 0.53817713 -0.18218435 0.30389133 0.41011405 0.100434065
0.054505777 -0.137157 0.1973373 0.17236888 0.086141095 0.40644708 0.25137576 0.10765746
0.27106532 0.3208157 0.30860028 -0.16101006 0.20299283 -0.07178468 0.020056533 -0.05732168
0.5063049 -0.11747384 -0.1638882 0.33612 -0.0661615 0.53516144 0.39880088 0.29438418
-0.2662978 0.2395274 -0.24011447 0.0012205063 -0.12138629 0.16559632 -0.21782501 0.4726138
0.33519942 0.18439397 0.25023633 0.25159776 0.25649047 -0.16876407 0.32895973 0.5987744
0.19013163 0.25765264 0.010043455 0.30400136 0.34419638 -0.8303652 -0.07513425 0.32635733
0.1687811 -0.23653764 -0.074269086 0.1685555 -0.16684853 0.3303663 0.46660927 0.08806403
0.1360118 -0.14690667 -0.76521176 -0.22631702 0.028447974 0.31008926 0.47714704 -0.49815974
-0.21480446 -0.3272451 0.2696888 0.39417136 0.43503085 0.3204239 0.3035516 0.1378734
0.48914444 0.31063566 0.13948596 0.12794855 0.036142465 -0.64748716 0.29743487 0.06958292
0.47064373 -0.2503291 -0.00693713 0.4130993 -0.33700797 0.68116146 0.24384291 0.37038854
-0.16811232 -0.5598948 0.0010930487 -0.404866 -0.9490385 0.27466917 -0.13726383 0.3825524
-0.067174986 0.21039653 0.2253374 0.18447971 0.34184548 -0.04905786 -0.16787194 0.19135861
0.19307846 0.28438467 0.18919289 0.28434289 0.30521622 0.5433384 0.15627876 0.33464736
0.3710097 0.13446602 -0.46495777 0.22019985 -0.17583786 0.4026016 -0.82673204 0.86801684
0.38097626 -0.36716318 -0.6806215 -0.037181415 -0.08011314 0.15371618 0.29104984 -0.24391016
-0.10387105 -0.0015163029 0.10896924 0.123971164 0.41465062 0.16961196 0.25968754 0.10744426
0.33758542 0.29663584 0.30878192 -0.4855709 0.34722078 -0.006977355 -0.12576032 0.0051753046
0.6558936 -0.4047833 0.06376888 0.357272 -0.15397882 0.081482604 0.28340876 0.31959924
-0.34244764 -0.19768927 -0.4759447 -0.22664686 -0.5536017 0.29300633 -0.2036928 0.35376304
00000000: ee89 873e 91be 043e b301 5e3e 4680 2f3e
00000010: d565 403e df8e 10bf c4be 37bd e359 823c
00000020: f821 9e3e fc87 963e 95c9 18be e555 b73e
00000030: 1179 8f3e ec5a 4d3d 9159 a93e f0f0 953e
00000040: a89a 273e 8a3f dd3d 541c eebd fa2c 823e
00000050: 0579 753e b7d9 b63e b03b 1a3f 2da9 e03e
00000060: 0e3f d3bd 868d 3e3d 650f 76be 83ce 973d
00000070: d708 a3be b719 763e 2f25 a93e 3a7f ff3d
00000080: 3c9f e4bd d4e8 45be 3541 4e3e 6a8d 7a3e
00000090: 3808 b23e 8648 263e 35c3 943e 80fa 87bd
000000a0: ec1b b33e 462c 9c3e e4cb ed3e d36a 03be
000000b0: 4ad3 67bd 80bf b5bd 9e29 463c 3832 aa3d
000000c0: 5de7 cf3e 4338 2e3e f026 82be d93c 9c3e
000000d0: f824 14be 009c bc3e c360 873e 9175 363e
000000e0: a31a a5be 17b5 b43c 936c 76be 9b52 1e3d
000000f0: 92f7 cdbe 8241 ce3d 3fc1 493d b4b7 c23e
00000100: 39ac b43d c986 5d3e 07a5 a53e 00c5 533e
00000110: 9e4f 873e 3da7 78bd 0ba9 3abe 47b8 5fbe
00000120: 05b7 823e e84c b03e 0fdc 8fbe 638d 9f3e
00000130: 535b a33e 77ad 4cbd b0c9 b23e a045 e33e
00000140: b36d 4f3e 2a74 053e 4889 223e e24c 273c
00000150: 2d89 a43d 089d a23e 64e6 d7bd 49ca 373f
00000160: e821 943d 754d 59bd f73f 903e fac5 093f
00000170: 898e 3abe a597 9b3e 78fa d13e 60b0 cd3d
00000180: 7341 5f3d e272 0cbe ca12 4a3e 7881 303e
00000190: be6a b03d d519 d03e 53b4 803e 847b dc3d
000001a0: 13c9 8a3e f541 a43e db00 9e3e d2df 24be
000001b0: 5add 4f3e d903 93bd 994d a43c 23ca 6abd
000001c0: 339d 013f 2096 f0bd 4fd2 27be ec17 ac3e
000001d0: ae7f 87bd 5700 093f a12f cc3e 86b9 963e
000001e0: 2f58 88be ac46 753e 91e0 75be 65f9 9f3a
000001f0: 6099 f8bd 1592 293e 850d 5fbe 70fa f13e
00000200: 429f ab3e c6d1 3c3e fa1e 803e 6cd1 803e
00000210: b852 833e 7dd0 2cbe 696d a83e 4749 193f
00000220: deb1 423e 0ceb 833e 4e8d 243c 11a6 9b3e
00000230: 823a b03e d092 54bf fcdf 99bd 4f18 a73e
00000240: f4d4 2c3e ec36 72be 641a 98bd d099 2c3e
00000250: 57da 2abe c625 a93e 69e7 ee3e ea5a b43d
00000260: ad46 0b3e b46e 16be ebe4 43bf a6bf 67be
00000270: ba0b e93c 05c4 9e3e 9e4c f43e cb0e ffbe
00000280: b3f5 5bbe ab8c a7be a714 8a3e d4d0 c93e
00000290: 5dbc de3e 9a0e a43e 1e6b 9b3e af2e 0d3e
000002a0: 2471 fa3e a30b 9f3e 68d5 0e3e f204 033e
000002b0: 1f0a 143d b8c1 25bf 6249 983e 7d81 8e3d
000002c0: 37f8 f03e 232b 80be dd50 e3bb c081 d33e
000002d0: 4f8c acbe 9960 2e3f f5b1 793e 91a3 bd3e
000002e0: a325 2cbe 4455 0fbf a144 8f3a 994a cfbe
000002f0: 30f4 72bf 70a1 8c3e e48e 0cbe e8dd c33e
00000300: 0a93 89bd 3072 573e d9be 663e 40e8 3c3e
00000310: 5f06 af3e e5f0 48bd 9fe6 2bbe 83f3 433e
00000320: 5cb6 453e de9a 913e c8bb 413e 6495 913e
00000330: 4d45 9c3e 3a18 0b3f 8a07 203e e656 ab3e
00000340: fcf4 bd3e 76b1 093e f20e eebe 127c 613e
00000350: d70e 34be cc21 ce3e b6a4 53bf 5a36 5e3f
00000360: 520f c33e d0fc bbbe 363d 2ebf 8a4b 18bd
00000370: 5c12 a4bd c667 1d3e 7c04 953e 96c3 79be
00000380: 58ba d4bd afbe c6ba 442b df3d 98e4 fd3d
00000390: 164d d43e c2ae 2d3e c4f5 843e bc0b dc3d
000003a0: ffd7 ac3e a7e0 973e aa18 9e3e c09c f8be
000003b0: ecc6 b13e 4ca2 e4bb 50c7 00be 9a95 a93b
000003c0: a5e8 273f c23f cfbe 4299 823d 5bec b63e
000003d0: a0ac 1dbe 5ae0 a63d f41a 913e 83a2 a33e
000003e0: 4c55 afbe 0e6f 4abe 06af f3be 1d16 68be
000003f0: d7b8 0dbf ed04 963e d894 50be 6e20 b53e

fc3.bias f4 [4]
0.7353065 0.5945388 0.49416625 0.5762173
00000000: 0c3d 3c3f b233 183f 5c03 fd3e fa82 133f
